{"format": "layers-model", "generatedBy": "keras v3.13.2", "convertedBy": "TensorFlow.js Converter v4.22.0", "modelTopology": {"keras_version": "3.13.2", "backend": "tensorflow", "model_config": {"class_name": "Sequential", "config": {"name": "LSTM_PanenPadi_Jember_v3", "trainable": true, "dtype": {"module": "keras", "class_name": "DTypePolicy", "config": {"name": "float32"}, "registered_name": null}, "layers": [{"class_name": "InputLayer", "config": {"batch_shape": [null, 3, 12], "dtype": "float32", "sparse": false, "ragged": false, "name": "input_layer", "optional": false}}, {"class_name": "LSTM", "config": {"name": "lstm_1", "trainable": true, "dtype": {"module": "keras", "class_name": "DTypePolicy", "config": {"name": "float32"}, "registered_name": null}, "return_sequences": false, "return_state": false, "go_backwards": false, "stateful": false, "unroll": false, "zero_output_for_mask": false, "units": 24, "activation": "tanh", "recurrent_activation": "sigmoid", "use_bias": true, "kernel_initializer": {"module": "keras.initializers", "class_name": "GlorotUniform", "config": {"seed": null}, "registered_name": null}, "recurrent_initializer": {"module": "keras.initializers", "class_name": "Orthogonal", "config": {"seed": null, "gain": 1.0}, "registered_name": null}, "bias_initializer": {"module": "keras.initializers", "class_name": "Zeros", "config": {}, "registered_name": null}, "unit_forget_bias": true, "kernel_regularizer": {"module": "keras.regularizers", "class_name": "L2", "config": {"l2": 0.001}, "registered_name": null}, "recurrent_regularizer": {"module": "keras.regularizers", "class_name": "L2", "config": {"l2": 0.001}, "registered_name": null}, "bias_regularizer": null, "activity_regularizer": null, "kernel_constraint": null, "recurrent_constraint": null, "bias_constraint": null, "dropout": 0.0, "recurrent_dropout": 0.0, "seed": null}}, {"class_name": "BatchNormalization", "config": {"name": "batch_normalization", "trainable": true, "dtype": {"module": "keras", "class_name": "DTypePolicy", "config": {"name": "float32"}, "registered_name": null}, "axis": -1, "momentum": 0.99, "epsilon": 0.001, "center": true, "scale": true, "beta_initializer": {"module": "keras.initializers", "class_name": "Zeros", "config": {}, "registered_name": null}, "gamma_initializer": {"module": "keras.initializers", "class_name": "Ones", "config": {}, "registered_name": null}, "moving_mean_initializer": {"module": "keras.initializers", "class_name": "Zeros", "config": {}, "registered_name": null}, "moving_variance_initializer": {"module": "keras.initializers", "class_name": "Ones", "config": {}, "registered_name": null}, "beta_regularizer": null, "gamma_regularizer": null, "beta_constraint": null, "gamma_constraint": null, "synchronized": false}}, {"class_name": "Dropout", "config": {"name": "dropout", "trainable": true, "dtype": {"module": "keras", "class_name": "DTypePolicy", "config": {"name": "float32"}, "registered_name": null}, "rate": 0.4, "seed": null, "noise_shape": null}}, {"class_name": "Dense", "config": {"name": "dense_hidden", "trainable": true, "dtype": {"module": "keras", "class_name": "DTypePolicy", "config": {"name": "float32"}, "registered_name": null}, "units": 16, "activation": "relu", "use_bias": true, "kernel_initializer": {"module": "keras.initializers", "class_name": "GlorotUniform", "config": {"seed": null}, "registered_name": null}, "bias_initializer": {"module": "keras.initializers", "class_name": "Zeros", "config": {}, "registered_name": null}, "kernel_regularizer": {"module": "keras.regularizers", "class_name": "L2", "config": {"l2": 0.001}, "registered_name": null}, "bias_regularizer": null, "kernel_constraint": null, "bias_constraint": null, "quantization_config": null}}, {"class_name": "Dropout", "config": {"name": "dropout_1", "trainable": true, "dtype": {"module": "keras", "class_name": "DTypePolicy", "config": {"name": "float32"}, "registered_name": null}, "rate": 0.2, "seed": null, "noise_shape": null}}, {"class_name": "Dense", "config": {"name": "output", "trainable": true, "dtype": {"module": "keras", "class_name": "DTypePolicy", "config": {"name": "float32"}, "registered_name": null}, "units": 1, "activation": "linear", "use_bias": true, "kernel_initializer": {"module": "keras.initializers", "class_name": "GlorotUniform", "config": {"seed": null}, "registered_name": null}, "bias_initializer": {"module": "keras.initializers", "class_name": "Zeros", "config": {}, "registered_name": null}, "kernel_regularizer": null, "bias_regularizer": null, "kernel_constraint": null, "bias_constraint": null, "quantization_config": null}}], "build_input_shape": [null, 3, 12]}}, "training_config": {"loss": "huber", "loss_weights": null, "metrics": ["mae"], "weighted_metrics": null, "run_eagerly": false, "steps_per_execution": 1, "jit_compile": false, "optimizer_config": {"class_name": "Adam", "config": {"name": "adam", "learning_rate": 2.499999936844688e-05, "weight_decay": null, "clipnorm": null, "global_clipnorm": null, "clipvalue": null, "use_ema": false, "ema_momentum": 0.99, "ema_overwrite_frequency": null, "loss_scale_factor": null, "gradient_accumulation_steps": null, "beta_1": 0.9, "beta_2": 0.999, "epsilon": 1e-07, "amsgrad": false}}}}, "weightsManifest": [{"paths": ["group1-shard1of1.bin"], "weights": [{"name": "LSTM_PanenPadi_Jember_v3/batch_normalization/gamma", "shape": [24], "dtype": "float32"}, {"name": "LSTM_PanenPadi_Jember_v3/batch_normalization/beta", "shape": [24], "dtype": "float32"}, {"name": "LSTM_PanenPadi_Jember_v3/batch_normalization/moving_mean", "shape": [24], "dtype": "float32"}, {"name": "LSTM_PanenPadi_Jember_v3/batch_normalization/moving_variance", "shape": [24], "dtype": "float32"}, {"name": "LSTM_PanenPadi_Jember_v3/dense_hidden/kernel", "shape": [24, 16], "dtype": "float32"}, {"name": "LSTM_PanenPadi_Jember_v3/dense_hidden/bias", "shape": [16], "dtype": "float32"}, {"name": "LSTM_PanenPadi_Jember_v3/lstm_1/lstm_cell/kernel", "shape": [12, 96], "dtype": "float32"}, {"name": "LSTM_PanenPadi_Jember_v3/lstm_1/lstm_cell/recurrent_kernel", "shape": [24, 96], "dtype": "float32"}, {"name": "LSTM_PanenPadi_Jember_v3/lstm_1/lstm_cell/bias", "shape": [96], "dtype": "float32"}, {"name": "LSTM_PanenPadi_Jember_v3/output/kernel", "shape": [16, 1], "dtype": "float32"}, {"name": "LSTM_PanenPadi_Jember_v3/output/bias", "shape": [1], "dtype": "float32"}]}]}